29_setembro_modelo.pt (torch, 90379 bytes, 62 tensors)

finalconv.weight f4 [13, 8]
0	0xbde53771	-0.11192215
1	0x3eefcf53	0.46837863
2	0xbdd8c114	-0.10583702
3	0x3f05e3ab	0.5230052
4	0xbeddef8e	-0.43346828
5	0x3e59f275	0.21283896
6	0xbe8f5126	-0.279916
7	0xbe1dd6a0	-0.15413904
8	0x3e8f47c0	0.27984428
9	0x3e813aac	0.25240076
10	0xbecab9a6	-0.39594764
11	0x3d7df72c	0.0620033
12	0xbe9e5108	-0.30921197
13	0x3ebb5d6f	0.36594722
14	0xbe889382	-0.2667504
15	0x3e8b1a10	0.27168322
16	0x3ee6e993	0.45100078
17	0x3f04271b	0.5162217
18	0xbea81b5d	-0.32833377
19	0xbe8cc9bb	-0.27497658
20	0x3eddd88e	0.4332928
21	0x3d8b2d90	0.067958
22	0xbe43d3f6	-0.19123825
23	0x3edbbfcd	0.4291977
24	0x3e30148c	0.17195338
25	0xbef2a012	-0.4738775
26	0x3d2e2f45	0.04252555
27	0xbe44fc41	-0.19236852
28	0x3eb5c9c8	0.3550551
29	0x3eb392ae	0.35072845
30	0x3df5ebdb	0.120078765
31	0x3da75175	0.081698336
32	0x3ed2027d	0.41017523
33	0x3e6888ea	0.22708479
34	0xbe102773	-0.14077549
35	0x3c951660	0.018199146
36	0x3e93283e	0.2874164
37	0x3ee10232	0.43946987
38	0xbef43be1	-0.47701934
39	0xbecb8598	-0.3975036
40	0xbec2ee33	-0.38072357
41	0xbb60c223	-0.0034295402
42	0x3d8d01b5	0.06885091
43	0x3e44e58e	0.19228193
44	0x3d922935	0.07136766
45	0xbe63d563	-0.2224937
46	0xbdd81429	-0.1055072
47	0xbed684e4	-0.41898263
48	0xbd046e5b	-0.032331806
49	0xbd8dc81d	-0.06922934
50	0xbdfc8f56	-0.12332027
51	0xbee98cd0	-0.45615244
52	0xbed0593a	-0.40693074
53	0x3ceccf22	0.028907362
54	0x3e06b764	0.13155895
55	0xbef4d9b0	-0.47822332
56	0x3f089d23	0.5336477
57	0x3ea87624	0.32902634
58	0x3ebbf7d3	0.36712512
59	0xbe03bace	-0.12864229
60	0xbe6d663d	-0.23183532
61	0x3e3255d9	0.17415561
62	0x3c787b62	0.0151661355
63	0x3e8c2ea9	0.2737935
64	0x3e6ada7d	0.22934909
65	0x3e8f69b8	0.28010345
66	0x3e6f0b31	0.23344113
67	0x3e39a86f	0.18130659
68	0x3d4b1adf	0.049586173
69	0x3dba84c2	0.09107353
70	0x3cc171a3	0.023613757
71	0x3ec492f0	0.38393354
72	0x3ed07686	0.40715426
73	0xbe78fa66	-0.2431427
74	0x3f0444b7	0.5166735
75	0xbef8e203	-0.48609933
76	0xbee4add0	-0.44663858
77	0x3de926fc	0.11384389
78	0xbef26f68	-0.4735062
79	0x3ed34d46	0.41269892
80	0xbdf42997	-0.11921995
81	0xbe991341	-0.29897502
82	0x3f05869f	0.5215854
83	0x3e19a793	0.1500533
84	0x3e489190	0.19586778
85	0xbe79fc30	-0.24412608
86	0xbeea943b	-0.45816216
87	0xbeb1f4ef	-0.34757182
88	0xbedf66ca	-0.4363311
89	0xbea72c55	-0.3265101
90	0xbe989de0	-0.2980795
91	0xbed4b4a8	-0.4154408
92	0xbd563454	-0.052295998
93	0xbebf18b7	-0.37323543
94	0xbef37fba	-0.47558385
95	0xbd178891	-0.036995474
96	0x3eade48d	0.33963433
97	0x3e88cd09	0.2671893
98	0x3d902c13	0.070396565
99	0x3e1a33f4	0.15058881
100	0xbed94586	-0.42435855
101	0xbec34f3b	-0.38146386
102	0x3efc7523	0.49308118
103	0x3e835ffb	0.25659165

finalconv.bias f4 [8]
0	0x00000000	0.0
1	0x00000000	0.0
2	0x00000000	0.0
3	0x00000000	0.0
4	0x00000000	0.0
5	0x00000000	0.0
6	0x00000000	0.0
7	0x00000000	0.0

conv_pl_1.0.att_l f4 [1, 1, 8]
0	0x3f4624fc	0.77400184
1	0x3eec17f3	0.46112022
2	0x3f131caa	0.5746561
3	0x3f38fb34	0.72258306
4	0x3ed21717	0.4103324
5	0x3f4c679c	0.79845595
6	0xbf47f1fb	-0.7810361
7	0x3f4af881	0.79285437

conv_pl_1.0.att_r f4 [1, 1, 8]
0	0xbf302646	-0.688084
1	0xbe2cb333	-0.16865234
2	0xbefff5c1	-0.49992183
3	0xbea386fb	-0.3193892
4	0xbeed22db	-0.46315655
5	0x3f395527	0.7239556
6	0xbf3d9c04	-0.74066186
7	0x3d892526	0.066965386

conv_pl_1.0.bias f4 [8]
0	0x00000000	0.0
1	0x00000000	0.0
2	0x00000000	0.0
3	0x00000000	0.0
4	0x00000000	0.0
5	0x00000000	0.0
6	0x00000000	0.0
7	0x00000000	0.0

conv_pl_1.0.lin_l.weight f4 [8, 13]
0	0xbeaecdae	-0.34141296
1	0xbe05076e	-0.12991115
2	0xbef1c59a	-0.4722107
3	0xbe2d0eb1	-0.16900136
4	0xbe25a9a6	-0.16177997
5	0x3e149ac8	0.1451217
6	0x3f07255e	0.5279139
7	0x3e3fbdf3	0.18724804
8	0x3ec8bde0	0.39207363
9	0x3ec1c709	0.37847164
10	0x3f01c6f1	0.50694185
11	0x3f05b6e1	0.52232176
12	0xbef67e3e	-0.4814319
13	0x3cec0e2c	0.028815351
14	0x3e140a43	0.1445704
15	0x3e814e5a	0.2525509
16	0xbee84868	-0.45367742
17	0x3f070a57	0.5275015
18	0xbd727a7f	-0.059198853
19	0x3eeedf73	0.46654853
20	0x3e7bd54a	0.24593082
21	0xbdc7537d	-0.09732721
22	0xbef0dc0c	-0.47042882
23	0x3db3643c	0.087593526
24	0xbe3e2ccf	-0.1857178
25	0xbec85cb6	-0.39133233
26	0x3e5af097	0.2138084
27	0x3e8501cf	0.25977942
28	0xbd8c8a0a	-0.06862266
29	0x3e812f62	0.25231463
30	0x3e0e5b39	0.13901986
31	0x3e95553d	0.29166594
32	0xbef4931b	-0.47768483
33	0x3efd3a36	0.49458474
34	0x3ef9477a	0.48687345
35	0x3ed14d2d	0.40879193
36	0xbe517f54	-0.20458728
37	0xbee28c19	-0.4424751
38	0x3ed2dc86	0.4118387
39	0xbed89fa3	-0.42309293
40	0x3e8418b3	0.25800094
41	0x3e9adbd0	0.3024583
42	0x3f08c185	0.5342029
43	0xbad6af9a	-0.0016379238
44	0xbef97cf9	-0.4872816
45	0xbe8d306f	-0.27576014
46	0xbde39fdf	-0.11114477
47	0x3e6f0191	0.23340441
48	0x3df45283	0.119298
49	0x3f03f273	0.51541823
50	0x3f0848fb	0.5323636
51	0x3eeb4155	0.45948282
52	0xbd76c244	-0.06024386
53	0xbede400f	-0.43408248
54	0xbd844038	-0.06457561
55	0x3edc91e0	0.43080044
56	0xbe8a66f7	-0.2703168
57	0x3f036557	0.5132651
58	0xbe4423df	-0.19154309
59	0x3ec6e238	0.38844466
60	0xbeb92b2f	-0.3616576
61	0x3e55d0ce	0.20880434
62	0x3e032b7d	0.12809558
63	0x3dd1cb15	0.10243813
64	0xbce1a81e	-0.027545985
65	0x3e8c8d70	0.27451658
66	0x3efa058d	0.4883236
67	0x3c09d92c	0.008413594
68	0x3eae3050	0.34021235
69	0xbeb452bd	-0.35219374
70	0x3df50d76	0.11965458
71	0x3eeb993f	0.46015355
72	0x3ee76658	0.4519527
73	0xbbb6ee95	-0.0055826404
74	0xbc9d9179	-0.019234406
75	0xbe2b827a	-0.16748992
76	0x3e6eb868	0.23312533
77	0x3f088795	0.5333188
78	0xbea7d363	-0.32778463
79	0xbc2d6d70	-0.010585174
80	0x3ed32784	0.41241086
81	0xbefd4209	-0.49464443
82	0x3e9fe023	0.3122569
83	0x3e5cb7eb	0.21554534
84	0x3ee613b3	0.44936904
85	0xbe680184	-0.22656828
86	0x3eecc731	0.4624572
87	0x3df11a2e	0.117725715
88	0xbef89356	-0.48549908
89	0x3ece7816	0.40325993
90	0x3e1bab1b	0.1520199
91	0x3e045a9c	0.1292519
92	0x3d177e58	0.036985725
93	0xbe43be8c	-0.19115657
94	0xbe66d9f1	-0.22544076
95	0xbed37914	-0.41303313
96	0x3e870e2b	0.26377997
97	0xbe8bec08	-0.27328515
98	0x3e3e607d	0.18591495
99	0x3e589626	0.21151027
100	0xbe2592ff	-0.16169356
101	0x3ddfc884	0.10926917
102	0xbdb32f84	-0.08749297
103	0xbe755c12	-0.23960903

conv_pl_1.0.lin_r.weight f4 [8, 13]
0	0xbeaecdae	-0.34141296
1	0xbe05076e	-0.12991115
2	0xbef1c59a	-0.4722107
3	0xbe2d0eb1	-0.16900136
4	0xbe25a9a6	-0.16177997
5	0x3e149ac8	0.1451217
6	0x3f07255e	0.5279139
7	0x3e3fbdf3	0.18724804
8	0x3ec8bde0	0.39207363
9	0x3ec1c709	0.37847164
10	0x3f01c6f1	0.50694185
11	0x3f05b6e1	0.52232176
12	0xbef67e3e	-0.4814319
13	0x3cec0e2c	0.028815351
14	0x3e140a43	0.1445704
15	0x3e814e5a	0.2525509
16	0xbee84868	-0.45367742
17	0x3f070a57	0.5275015
18	0xbd727a7f	-0.059198853
19	0x3eeedf73	0.46654853
20	0x3e7bd54a	0.24593082
21	0xbdc7537d	-0.09732721
22	0xbef0dc0c	-0.47042882
23	0x3db3643c	0.087593526
24	0xbe3e2ccf	-0.1857178
25	0xbec85cb6	-0.39133233
26	0x3e5af097	0.2138084
27	0x3e8501cf	0.25977942
28	0xbd8c8a0a	-0.06862266
29	0x3e812f62	0.25231463
30	0x3e0e5b39	0.13901986
31	0x3e95553d	0.29166594
32	0xbef4931b	-0.47768483
33	0x3efd3a36	0.49458474
34	0x3ef9477a	0.48687345
35	0x3ed14d2d	0.40879193
36	0xbe517f54	-0.20458728
37	0xbee28c19	-0.4424751
38	0x3ed2dc86	0.4118387
39	0xbed89fa3	-0.42309293
40	0x3e8418b3	0.25800094
41	0x3e9adbd0	0.3024583
42	0x3f08c185	0.5342029
43	0xbad6af9a	-0.0016379238
44	0xbef97cf9	-0.4872816
45	0xbe8d306f	-0.27576014
46	0xbde39fdf	-0.11114477
47	0x3e6f0191	0.23340441
48	0x3df45283	0.119298
49	0x3f03f273	0.51541823
50	0x3f0848fb	0.5323636
51	0x3eeb4155	0.45948282
52	0xbd76c244	-0.06024386
53	0xbede400f	-0.43408248
54	0xbd844038	-0.06457561
55	0x3edc91e0	0.43080044
56	0xbe8a66f7	-0.2703168
57	0x3f036557	0.5132651
58	0xbe4423df	-0.19154309
59	0x3ec6e238	0.38844466
60	0xbeb92b2f	-0.3616576
61	0x3e55d0ce	0.20880434
62	0x3e032b7d	0.12809558
63	0x3dd1cb15	0.10243813
64	0xbce1a81e	-0.027545985
65	0x3e8c8d70	0.27451658
66	0x3efa058d	0.4883236
67	0x3c09d92c	0.008413594
68	0x3eae3050	0.34021235
69	0xbeb452bd	-0.35219374
70	0x3df50d76	0.11965458
71	0x3eeb993f	0.46015355
72	0x3ee76658	0.4519527
73	0xbbb6ee95	-0.0055826404
74	0xbc9d9179	-0.019234406
75	0xbe2b827a	-0.16748992
76	0x3e6eb868	0.23312533
77	0x3f088795	0.5333188
78	0xbea7d363	-0.32778463
79	0xbc2d6d70	-0.010585174
80	0x3ed32784	0.41241086
81	0xbefd4209	-0.49464443
82	0x3e9fe023	0.3122569
83	0x3e5cb7eb	0.21554534
84	0x3ee613b3	0.44936904
85	0xbe680184	-0.22656828
86	0x3eecc731	0.4624572
87	0x3df11a2e	0.117725715
88	0xbef89356	-0.48549908
89	0x3ece7816	0.40325993
90	0x3e1bab1b	0.1520199
91	0x3e045a9c	0.1292519
92	0x3d177e58	0.036985725
93	0xbe43be8c	-0.19115657
94	0xbe66d9f1	-0.22544076
95	0xbed37914	-0.41303313
96	0x3e870e2b	0.26377997
97	0xbe8bec08	-0.27328515
98	0x3e3e607d	0.18591495
99	0x3e589626	0.21151027
100	0xbe2592ff	-0.16169356
101	0x3ddfc884	0.10926917
102	0xbdb32f84	-0.08749297
103	0xbe755c12	-0.23960903

conv_pl_1.1.att_l f4 [1, 1, 8]
0	0x3e18d72e	0.14925835
1	0x3e2d1089	0.16900839
2	0x3eb67876	0.3563878
3	0xbf2001b7	-0.62502617
4	0xbe22e121	-0.15906192
5	0x3f43a406	0.76422155
6	0xbf0fd22e	-0.56180084
7	0xbf1da12f	-0.6157407

conv_pl_1.1.att_r f4 [1, 1, 8]
0	0x3f289e24	0.65866303
1	0xbef7c777	-0.48394367
2	0x3d96fa25	0.0737193
3	0xbee6a05c	-0.4504422
4	0xbf048c08	-0.5177617
5	0x3f460b81	0.77361304
6	0x3f1bcc51	0.6085864
7	0xbebf1027	-0.3731701

conv_pl_1.1.bias f4 [8]
0	0x00000000	0.0
1	0x00000000	0.0
2	0x00000000	0.0
3	0x00000000	0.0
4	0x00000000	0.0
5	0x00000000	0.0
6	0x00000000	0.0
7	0x00000000	0.0

conv_pl_1.1.lin_l.weight f4 [8, 13]
0	0xbe8910e9	-0.26770714
1	0xbd40d528	-0.04707828
2	0x3f0405fb	0.51571625
3	0xbe167c12	-0.14695767
4	0xbddba4e4	-0.1072481
5	0x3eb8cb8b	0.3609279
6	0x3e8a1137	0.2696626
7	0x3df457ca	0.11930807
8	0xbebec19f	-0.37257096
9	0xbdade333	-0.084906004
10	0xbee654c9	-0.4498656
11	0x3e38f5db	0.18062536
12	0x3ebc1cf3	0.36740837
13	0x3ea1ba8f	0.31587645
14	0x3e7d2a22	0.24723104
15	0xbe86ef57	-0.26354477
16	0x3e0c42fb	0.13697426
17	0x3e3523a1	0.17689373
18	0x3ecd71c5	0.40125862
19	0xbe7e7907	-0.24850856
20	0x3ec722ce	0.3889374
21	0xbe91272d	-0.283502
22	0x3d6248f1	0.055245344
23	0xbdb42cf2	-0.08797635
24	0xbe592739	-0.21206369
25	0xbe9af017	-0.302613
26	0xbec3d7d0	-0.3825059
27	0xbe5a0696	-0.21291575
28	0x3f076bb3	0.5289871
29	0x3e22d3fc	0.15901178
30	0xbec350ed	-0.3814768
31	0x3e1adf34	0.15124208
32	0x3e620021	0.22070362
33	0xbcff4b43	-0.031163817
34	0xbf01b25c	-0.5066278
35	0x3f053214	0.5202954
36	0xbec7cfa1	-0.39025596
37	0x3d84571a	0.06461926
38	0xbe838c69	-0.25693062
39	0xbd68ecfd	-0.056866635
40	0xbed70cdc	-0.42001998
41	0x3ee07661	0.43840316
42	0x3ee20010	0.44140673
43	0xbe09f2ee	-0.13471577
44	0xbea9daf2	-0.33174855
45	0xbeb5c056	-0.35498303
46	0x3efccf41	0.49376872
47	0xbf07814d	-0.5293167
48	0xbed9544e	-0.42447132
49	0xbedb1579	-0.4278982
50	0xbec747e7	-0.38922045
51	0x3d906f53	0.070524834
52	0xbeeafca5	-0.45895877
53	0x3e9854ce	0.297522
54	0xbe3641c0	-0.17798519
55	0xbea57915	-0.3231894
56	0xbe93bcaa	-0.28854877
57	0xbe8aef87	-0.2713587
58	0x3d48e906	0.049050353
59	0xbe93afe9	-0.28845146
60	0xbde3d3e3	-0.111243986
61	0xbe9e96d0	-0.30974436
62	0x3f01f16a	0.50758994
63	0xbe41eccf	-0.18937992
64	0x3ea8de04	0.32981884
65	0xbe8da00f	-0.27661178
66	0x3ef7d237	0.4840257
67	0xbecf8751	-0.40532926
68	0x3e844bec	0.25839174
69	0x3e832a53	0.25618228
70	0xbf06db28	-0.52678156
71	0xbe29c807	-0.1658021
72	0x3e8340ad	0.2563528
73	0xbe8b90c3	-0.27258882
74	0xbe3e3ca0	-0.18577814
75	0xbe61e46f	-0.22059797
76	0xbe72814b	-0.23682134
77	0x3ecb2bdc	0.396819
78	0x3e5db135	0.2164963
79	0xbe4a2795	-0.19741662
80	0xbe8fcd93	-0.28086528
81	0x3e40048f	0.18751739
82	0xbe45fccf	-0.1933472
83	0x3eb0b14e	0.34510273
84	0x3dc057be	0.093917355
85	0x3ee784c7	0.4521849
86	0xbe2289ef	-0.1587293
87	0x3ed39a72	0.4132877
88	0xbebf3338	-0.37343764
89	0xbc995a67	-0.018719865
90	0xbea65224	-0.32484543
91	0xbe71b090	-0.2360251
92	0x3ebd4fc8	0.3697493
93	0x3db66804	0.08906558
94	0xbd9cbef8	-0.07653612
95	0x3eaaea93	0.3338209
96	0xbee75494	-0.45181715
97	0x3e52f346	0.20600614
98	0xbebb78eb	-0.3661569
99	0x3eab9733	0.33513793
100	0xbdc9180f	-0.09819042
101	0xbefeedb4	-0.49790728
102	0x3ebc5524	0.36783707
103	0xbef27164	-0.47352135

conv_pl_1.1.lin_r.weight f4 [8, 13]
0	0xbe8910e9	-0.26770714
1	0xbd40d528	-0.04707828
2	0x3f0405fb	0.51571625
3	0xbe167c12	-0.14695767
4	0xbddba4e4	-0.1072481
5	0x3eb8cb8b	0.3609279
6	0x3e8a1137	0.2696626
7	0x3df457ca	0.11930807
8	0xbebec19f	-0.37257096
9	0xbdade333	-0.084906004
10	0xbee654c9	-0.4498656
11	0x3e38f5db	0.18062536
12	0x3ebc1cf3	0.36740837
13	0x3ea1ba8f	0.31587645
14	0x3e7d2a22	0.24723104
15	0xbe86ef57	-0.26354477
16	0x3e0c42fb	0.13697426
17	0x3e3523a1	0.17689373
18	0x3ecd71c5	0.40125862
19	0xbe7e7907	-0.24850856
20	0x3ec722ce	0.3889374
21	0xbe91272d	-0.283502
22	0x3d6248f1	0.055245344
23	0xbdb42cf2	-0.08797635
24	0xbe592739	-0.21206369
25	0xbe9af017	-0.302613
26	0xbec3d7d0	-0.3825059
27	0xbe5a0696	-0.21291575
28	0x3f076bb3	0.5289871
29	0x3e22d3fc	0.15901178
30	0xbec350ed	-0.3814768
31	0x3e1adf34	0.15124208
32	0x3e620021	0.22070362
33	0xbcff4b43	-0.031163817
34	0xbf01b25c	-0.5066278
35	0x3f053214	0.5202954
36	0xbec7cfa1	-0.39025596
37	0x3d84571a	0.06461926
38	0xbe838c69	-0.25693062
39	0xbd68ecfd	-0.056866635
40	0xbed70cdc	-0.42001998
41	0x3ee07661	0.43840316
42	0x3ee20010	0.44140673
43	0xbe09f2ee	-0.13471577
44	0xbea9daf2	-0.33174855
45	0xbeb5c056	-0.35498303
46	0x3efccf41	0.49376872
47	0xbf07814d	-0.5293167
48	0xbed9544e	-0.42447132
49	0xbedb1579	-0.4278982
50	0xbec747e7	-0.38922045
51	0x3d906f53	0.070524834
52	0xbeeafca5	-0.45895877
53	0x3e9854ce	0.297522
54	0xbe3641c0	-0.17798519
55	0xbea57915	-0.3231894
56	0xbe93bcaa	-0.28854877
57	0xbe8aef87	-0.2713587
58	0x3d48e906	0.049050353
59	0xbe93afe9	-0.28845146
60	0xbde3d3e3	-0.111243986
61	0xbe9e96d0	-0.30974436
62	0x3f01f16a	0.50758994
63	0xbe41eccf	-0.18937992
64	0x3ea8de04	0.32981884
65	0xbe8da00f	-0.27661178
66	0x3ef7d237	0.4840257
67	0xbecf8751	-0.40532926
68	0x3e844bec	0.25839174
69	0x3e832a53	0.25618228
70	0xbf06db28	-0.52678156
71	0xbe29c807	-0.1658021
72	0x3e8340ad	0.2563528
73	0xbe8b90c3	-0.27258882
74	0xbe3e3ca0	-0.18577814
75	0xbe61e46f	-0.22059797
76	0xbe72814b	-0.23682134
77	0x3ecb2bdc	0.396819
78	0x3e5db135	0.2164963
79	0xbe4a2795	-0.19741662
80	0xbe8fcd93	-0.28086528
81	0x3e40048f	0.18751739
82	0xbe45fccf	-0.1933472
83	0x3eb0b14e	0.34510273
84	0x3dc057be	0.093917355
85	0x3ee784c7	0.4521849
86	0xbe2289ef	-0.1587293
87	0x3ed39a72	0.4132877
88	0xbebf3338	-0.37343764
89	0xbc995a67	-0.018719865
90	0xbea65224	-0.32484543
91	0xbe71b090	-0.2360251
92	0x3ebd4fc8	0.3697493
93	0x3db66804	0.08906558
94	0xbd9cbef8	-0.07653612
95	0x3eaaea93	0.3338209
96	0xbee75494	-0.45181715
97	0x3e52f346	0.20600614
98	0xbebb78eb	-0.3661569
99	0x3eab9733	0.33513793
100	0xbdc9180f	-0.09819042
101	0xbefeedb4	-0.49790728
102	0x3ebc5524	0.36783707
103	0xbef27164	-0.47352135

conv_pl_1.2.att_l f4 [1, 1, 8]
0	0xbea549d0	-0.32282877
1	0x3f0b6150	0.5444536
2	0x3e2cf6a9	0.16890968
3	0xbd284f5a	-0.0410913
4	0x3c1f1cac	0.009711426
5	0xbede582a	-0.4342664
6	0xbd13f032	-0.03611774
7	0x3ed10f45	0.40831962

conv_pl_1.2.att_r f4 [1, 1, 8]
0	0x3f991848	1.1960535
1	0x3e127dcb	0.14305799
2	0x3d1e702c	0.038681194
3	0x3f6d4138	0.9267764
4	0x3d903160	0.070406675
5	0xbe882fbf	-0.26598927
6	0x3e0678d0	0.13132024
7	0x3f6ff766	0.93736875

conv_pl_1.2.bias f4 [8]
0	0x00000000	0.0
1	0x00000000	0.0
2	0x00000000	0.0
3	0x3c267e5b	0.010161961
4	0xbd781a4c	-0.060571954
5	0x3d025c14	0.031826094
6	0x3d65f743	0.05614401
7	0x3d8c050e	0.068369016

conv_pl_1.2.lin_l.weight f4 [8, 13]
0	0x3f2d28cf	0.67640394
1	0xbeae46d8	-0.34038424
2	0x3eefa8d9	0.46808508
3	0x3ef6c5c3	0.48197755
4	0xbd06a147	-0.03286865
5	0x3ec5c42a	0.38626224
6	0x3e03badf	0.12864254
7	0x3ef59f09	0.47972897
8	0xbef88042	-0.48535353
9	0x3e987850	0.2977929
10	0x3e8caaad	0.27473965
11	0xbf067831	-0.5252715
12	0xbf23ca10	-0.639802
13	0x3ede175a	0.4337719
14	0xbe57f6bf	-0.2109022
15	0xbe8375cd	-0.25675812
16	0xbee31ef9	-0.44359568
17	0xbd18cf15	-0.037306864
18	0xbe21d6ab	-0.15804546
19	0x3e51b649	0.20479693
20	0xbef419ce	-0.47675937
21	0x3ee7ba6a	0.4525941
22	0x3e1934d7	0.14961563
23	0xbe50ec92	-0.20402744
24	0xbe95e245	-0.29274192
25	0x3f2b1efa	0.6684414
26	0xbe6a1dda	-0.2286295
27	0x3ea2b110	0.31775713
28	0x3eb7882f	0.35846087
29	0x3e633bba	0.22190753
30	0xbe251136	-0.16119847
31	0x3e9a6dbd	0.3016185
32	0x3f062480	0.52399445
33	0xbdfb12f1	-0.12259472
34	0xbd15e197	-0.036592092
35	0xbee0859f	-0.43851945
36	0x3eec5bd3	0.46163806
37	0xbee2e382	-0.443142
38	0x3f2b995f	0.670309
39	0x3e25fcfb	0.16209786
40	0xbeebd69d	-0.46062174
41	0xbe0735ab	-0.13204066
42	0x3f0f4441	0.5596352
43	0x3e17df35	0.1483124
44	0xbed100f6	-0.40821046
45	0xbecccce0	-0.40000057
46	0xbd30ac01	-0.043132786
47	0x3ed61186	0.41810244
48	0x3e923761	0.28557876
49	0x3edda0a9	0.43286636
50	0x3e23ac61	0.15983726
51	0x3eb5c3b2	0.35500866
52	0xbedb8c4b	-0.42880473
53	0x3cfe101e	0.031013545
54	0x3e73af99	0.23797454
55	0x3cd104ca	0.025514979
56	0x3ea5cf75	0.3238484
57	0xbec81cf9	-0.39084604
58	0x3e9fb1bd	0.3119029
59	0xbf01bdbc	-0.50680137
60	0xbeb34dbe	-0.3502025
61	0x3ef3b761	0.47600845
62	0xbc57ef0c	-0.013179552
63	0x3df7232b	0.12067255
64	0xbed02072	-0.40649754
65	0xbeca0bda	-0.39462167
66	0xbe2c889b	-0.16848986
67	0xbe2c571c	-0.16830105
68	0xbdff7b89	-0.12474734
69	0xbdea4df5	-0.114406504
70	0x3d214529	0.039372597
71	0x3eed7635	0.46379247
72	0x3f04062d	0.51571923
73	0x3e17ab0d	0.14811344
74	0xbef97bea	-0.4872735
75	0x3e963e0e	0.2934422
76	0xbe977b6f	-0.2958636
77	0xbe572aca	-0.21012416
78	0xbe2c8fc6	-0.1685172
79	0xbe247831	-0.16061474
80	0xbe7bfe76	-0.24608788
81	0x3e5078fc	0.20358652
82	0xbe3be7ec	-0.1835019
83	0xbebcd520	-0.3688135
84	0xbefd0ed1	-0.49425367
85	0x3e95a272	0.29225498
86	0xbf09c75a	-0.5381981
87	0xbdcfcd65	-0.10146598
88	0xbef3afd2	-0.47595078
89	0x3d801246	0.062534854
90	0xbea353f7	-0.31899998
91	0x3e8baf51	0.27282193
92	0xbdd42837	-0.10359233
93	0x3ecf69b0	0.4051032
94	0x3e890353	0.2676035
95	0xbe564299	-0.20923842
96	0xbed04155	-0.40674844
97	0x3da7f34e	0.082007036
98	0xbec13ed1	-0.37743238
99	0xbd945eea	-0.07244666
100	0xbe943d47	-0.28953
101	0x3e9a82b3	0.3017784
102	0xbeef412f	-0.4672942
103	0x3d7076f5	0.058707196

conv_pl_1.2.lin_r.weight f4 [8, 13]
0	0x3f2d28cf	0.67640394
1	0xbeae46d8	-0.34038424
2	0x3eefa8d9	0.46808508
3	0x3ef6c5c3	0.48197755
4	0xbd06a147	-0.03286865
5	0x3ec5c42a	0.38626224
6	0x3e03badf	0.12864254
7	0x3ef59f09	0.47972897
8	0xbef88042	-0.48535353
9	0x3e987850	0.2977929
10	0x3e8caaad	0.27473965
11	0xbf067831	-0.5252715
12	0xbf23ca10	-0.639802
13	0x3ede175a	0.4337719
14	0xbe57f6bf	-0.2109022
15	0xbe8375cd	-0.25675812
16	0xbee31ef9	-0.44359568
17	0xbd18cf15	-0.037306864
18	0xbe21d6ab	-0.15804546
19	0x3e51b649	0.20479693
20	0xbef419ce	-0.47675937
21	0x3ee7ba6a	0.4525941
22	0x3e1934d7	0.14961563
23	0xbe50ec92	-0.20402744
24	0xbe95e245	-0.29274192
25	0x3f2b1efa	0.6684414
26	0xbe6a1dda	-0.2286295
27	0x3ea2b110	0.31775713
28	0x3eb7882f	0.35846087
29	0x3e633bba	0.22190753
30	0xbe251136	-0.16119847
31	0x3e9a6dbd	0.3016185
32	0x3f062480	0.52399445
33	0xbdfb12f1	-0.12259472
34	0xbd15e197	-0.036592092
35	0xbee0859f	-0.43851945
36	0x3eec5bd3	0.46163806
37	0xbee2e382	-0.443142
38	0x3f2b995f	0.670309
39	0x3e25fcfb	0.16209786
40	0xbeebd69d	-0.46062174
41	0xbe0735ab	-0.13204066
42	0x3f0f4441	0.5596352
43	0x3e17df35	0.1483124
44	0xbed100f6	-0.40821046
45	0xbecccce0	-0.40000057
46	0xbd30ac01	-0.043132786
47	0x3ed61186	0.41810244
48	0x3e923761	0.28557876
49	0x3edda0a9	0.43286636
50	0x3e23ac61	0.15983726
51	0x3eb5c3b2	0.35500866
52	0xbedb8c4b	-0.42880473
53	0x3cfe101e	0.031013545
54	0x3e73af99	0.23797454
55	0x3cd104ca	0.025514979
56	0x3ea5cf75	0.3238484
57	0xbec81cf9	-0.39084604
58	0x3e9fb1bd	0.3119029
59	0xbf01bdbc	-0.50680137
60	0xbeb34dbe	-0.3502025
61	0x3ef3b761	0.47600845
62	0xbc57ef0c	-0.013179552
63	0x3df7232b	0.12067255
64	0xbed02072	-0.40649754
65	0xbeca0bda	-0.39462167
66	0xbe2c889b	-0.16848986
67	0xbe2c571c	-0.16830105
68	0xbdff7b89	-0.12474734
69	0xbdea4df5	-0.114406504
70	0x3d214529	0.039372597
71	0x3eed7635	0.46379247
72	0x3f04062d	0.51571923
73	0x3e17ab0d	0.14811344
74	0xbef97bea	-0.4872735
75	0x3e963e0e	0.2934422
76	0xbe977b6f	-0.2958636
77	0xbe572aca	-0.21012416
78	0xbe2c8fc6	-0.1685172
79	0xbe247831	-0.16061474
80	0xbe7bfe76	-0.24608788
81	0x3e5078fc	0.20358652
82	0xbe3be7ec	-0.1835019
83	0xbebcd520	-0.3688135
84	0xbefd0ed1	-0.49425367
85	0x3e95a272	0.29225498
86	0xbf09c75a	-0.5381981
87	0xbdcfcd65	-0.10146598
88	0xbef3afd2	-0.47595078
89	0x3d801246	0.062534854
90	0xbea353f7	-0.31899998
91	0x3e8baf51	0.27282193
92	0xbdd42837	-0.10359233
93	0x3ecf69b0	0.4051032
94	0x3e890353	0.2676035
95	0xbe564299	-0.20923842
96	0xbed04155	-0.40674844
97	0x3da7f34e	0.082007036
98	0xbec13ed1	-0.37743238
99	0xbd945eea	-0.07244666
100	0xbe943d47	-0.28953
101	0x3e9a82b3	0.3017784
102	0xbeef412f	-0.4672942
103	0x3d7076f5	0.058707196

conv_pl_r_1.0.conv_x_z.weight f4 [2, 9, 8]
0	0x3e821663	0.25407705
1	0x3d0e3989	0.03472284
2	0x3ef58bb4	0.47958148
3	0x3e98adfd	0.29820243
4	0x3f013020	0.5046406
5	0xbed89e76	-0.42308396
6	0x3e4abbba	0.19798175
7	0x3e96f68c	0.29484975
8	0x3f11cd48	0.5695386
9	0xbf111b0b	-0.5668189
10	0xbf055679	-0.5208507
11	0x3c01b779	0.007917278
12	0x3e8bfa6e	0.273395
13	0xbc8890c6	-0.016670596
14	0xbcb0e148	-0.021591797
15	0x3f08acbb	0.53388566
16	0xbe3eedee	-0.1864545
17	0xbf0f2f65	-0.55931693
18	0xbe6660c0	-0.22497845
19	0xbea019eb	-0.31269774
20	0xbdd86e26	-0.10567884
21	0x3ef0132f	0.46889636
22	0x3de44cd6	0.11147468
23	0xbe1f97dc	-0.15585274
24	0xbd74a18c	-0.059724376
25	0x3eacd0f0	0.33753157
26	0xbe94b291	-0.29042485
27	0xbeed6a44	-0.46370137
28	0x3c505d6e	0.012717588
29	0x3ed88b0e	0.4229359
30	0x3f07b81e	0.53015316
31	0xbebd693d	-0.36994353
32	0xbd14ece4	-0.03635873
33	0x3e8eac93	0.2786604
34	0x3dbf7b79	0.093497224
35	0x3ec86364	0.3913833
36	0xbc441bc0	-0.011969507
37	0x3ec8b392	0.391995
38	0x3e9e52a5	0.30922428
39	0xbeca03a4	-0.39455903
40	0xbee1e637	-0.44120952
41	0xbe5c318e	-0.21503279
42	0x3eb3177a	0.3497885
43	0x3ca81c12	0.020521197
44	0x3e7d6f77	0.24749552
45	0x3eedbc00	0.46432495
46	0x3eaaf7de	0.33392233
47	0xbf15481e	-0.5831317
48	0x3b88008f	0.004150457
49	0xbec2cff8	-0.38049293
50	0xbe1b7f9c	-0.15185398
51	0x3ed2b178	0.41151023
52	0xbe85c979	-0.26130274
53	0x3f1553a7	0.5833077
54	0xbc83107d	-0.015999073
55	0x3d3a252e	0.045445614
56	0x3e1a9a33	0.15097885
57	0xbf1151dd	-0.5676554
58	0x3e167e1f	0.14696549
59	0xbe56ec66	-0.20988616
60	0x3e982145	0.29712883
61	0xbe3d0206	-0.18457803
62	0xbef6b838	-0.48187423
63	0xbeca7608	-0.39543176
64	0xbee91a3d	-0.4552783
65	0xbe5db047	-0.21649276
66	0x3dc594d0	0.09647524
67	0x3e0c73e0	0.13716078
68	0x3dede706	0.1161633
69	0x3eab7327	0.33486292
70	0xbee92b5b	-0.4554089
71	0x3e3ca13f	0.18420886
72	0x3ef63b78	0.48092246
73	0xbdef2e68	-0.11678773
74	0xbefa6dbd	-0.4891185
75	0xbecb4812	-0.39703423
76	0xbeabd6d9	-0.33562353
77	0xbe4fed98	-0.20305479
78	0x3d9ddc05	0.07707981
79	0x3ddd1512	0.107950345
80	0x3f0e8054	0.55664563
81	0x3e61afd1	0.22039725
82	0xbde6daed	-0.112722255
83	0xbee58c80	-0.44833755
84	0x3ed79aec	0.42110384
85	0xbec1a7b7	-0.3782327
86	0xbd9e04f0	-0.077157855
87	0xbc9c073f	-0.019046424
88	0x3d43e811	0.047828738
89	0xbec8fb29	-0.3925412
90	0xbeced679	-0.40398005
91	0x3c3b7f62	0.011443945
92	0xbf0f7892	-0.5604335
93	0xbf0e8402	-0.5567018
94	0x3e9c7228	0.30555844
95	0xbdb8bfcc	-0.09020957
96	0x3f141548	0.5784497
97	0xbda7eb06	-0.08199124
98	0x3df60fce	0.12014733
99	0x3ce96889	0.028492229
100	0xbe853cf2	-0.2602306
101	0x3f0bcbf3	0.54608077
102	0x3edbcd9c	0.42930305
103	0xbd8bcc4e	-0.068260774
104	0x3e7fb31c	0.24970669
105	0xbe1be85b	-0.15225355
106	0xbeddc8fd	-0.43317404
107	0xbc4e8359	-0.012604558
108	0x3d7d161c	0.061788663
109	0xbe4efa34	-0.20212632
110	0xbe04eeef	-0.12981771
111	0x3eaffc13	0.34372005
112	0xbe6a84eb	-0.22902267
113	0x3f09b626	0.5379356
114	0xbe94d587	-0.29069158
115	0xbee879a8	-0.45405316
116	0x3e955581	0.29166797
117	0x3d861c31	0.06548346
118	0xbc427807	-0.011869437
119	0x3eabc531	0.33548883
120	0xbebba215	-0.36647096
121	0xbe2f2c54	-0.17106754
122	0xbe16cf3c	-0.14727491
123	0x3df1fbd7	0.11815613
124	0xbd2a68f6	-0.041604005
125	0x3d89ccf1	0.067285426
126	0x3daf2274	0.08551493
127	0xbe4c451b	-0.19948237
128	0xbe52d38e	-0.20588514
129	0x3f1385e2	0.57626164
130	0x3f14ea55	0.5817006
131	0x3ef94c79	0.48691157
132	0x3db0358d	0.08603964
133	0x3f154390	0.5830622
134	0x3ea90021	0.3300791
135	0x3e3e16df	0.18563412
136	0x3d9ce42c	0.07660708
137	0x3ee43568	0.44571996
138	0x3e99a640	0.3000965
139	0x3ed66622	0.41874796
140	0x3d1b1859	0.037865017
141	0xbebe68c5	-0.37189308
142	0xbed7853c	-0.42093837
143	0x3da92945	0.08259825

conv_pl_r_1.0.conv_x_z.bias f4 [8]
0	0x00000000	0.0
1	0x00000000	0.0
2	0x00000000	0.0
3	0x00000000	0.0
4	0x00000000	0.0
5	0x00000000	0.0
6	0x00000000	0.0
7	0x00000000	0.0

conv_pl_r_1.0.conv_h_z.weight f4 [2, 8, 8]
0	0xbe10063d	-0.1406488
1	0xbef66cd2	-0.48129898
2	0xbd9d548a	-0.0768214
3	0xbf11bbaf	-0.5692701
4	0x3eb0dda7	0.34544107
5	0x3cc6c27d	0.024262661
6	0x3e686144	0.22693354
7	0xbe852bc3	-0.2600995
8	0x3eb8051d	0.359414
9	0x3ea794c9	0.32730702
10	0xbe9cee15	-0.30650392
11	0x3df34498	0.118783176
12	0x3ee6d6bf	0.45085713
13	0x3e924388	0.28567147
14	0x3ea9d49b	0.33170018
15	0xbe58e3b7	-0.21180616
16	0x3e9bdf52	0.30443817
17	0x3ef66849	0.48126438
18	0xbef0def8	-0.47045112
19	0x3ea5a3f8	0.3235166
20	0xbf1afd64	-0.60542893
21	0x3f198e6a	0.5998293
22	0x3d3a0ba7	0.04542127
23	0x3f1592b5	0.5842698
24	0x3f0f7657	0.5603995
25	0xbec255e5	-0.37956157
26	0xbe56526e	-0.20929882
27	0xbedece41	-0.43516734
28	0x3e97674b	0.29570994
29	0x3f18b0ff	0.59645075
30	0xbf059332	-0.5217773
31	0x3dc6d210	0.09708035
32	0x3d31f5ae	0.04344719
33	0xbeab4e0a	-0.33457977
34	0x3e4ac737	0.19802557
35	0xbf13e8dc	-0.5777719
36	0x3e2a47cf	0.16628955
37	0xbef698ee	-0.4816355
38	0xbd432d9d	-0.047650922
39	0xbe90d39f	-0.28286454
40	0xbe931ba0	-0.28732014
41	0xbe8cc417	-0.27493355
42	0xbe0786dc	-0.13235039
43	0xbefdb628	-0.49553037
44	0x3bc63a15	0.0060494044
45	0x3ef1fc53	0.4726282
46	0xbe2c80cd	-0.16846009
47	0xbf16538a	-0.5872122
48	0xbde9ba12	-0.11412443
49	0xbe0a0070	-0.1347673
50	0xbeb90a88	-0.36140847
51	0x3e6c170e	0.2305567
52	0x3f00e24a	0.5034529
53	0x3e6c31f2	0.23065928
54	0xbef63c91	-0.48093084
55	0x3ea33efa	0.31883985
56	0xbdaa4d79	-0.08315558
57	0xbeddeee9	-0.43346336
58	0xbeb6afba	-0.35680944
59	0xbf1735c3	-0.5906641
60	0x3ed95420	0.42446995
61	0xbe8ac138	-0.2710054
62	0xbe965039	-0.2935808
63	0xbceb45bd	-0.028719777
64	0xbdf2e8e4	-0.118608266
65	0x3f0dc7da	0.55383074
66	0x3e034784	0.1282025
67	0xbe812daa	-0.2523015
68	0x3e5cafaa	0.21551386
69	0xbe1ac47f	-0.1511402
70	0xbf1691e4	-0.5881636
71	0x3e5d1e86	0.21593675
72	0xbe41b154	-0.18915302
73	0xbe9d1e93	-0.3068739
74	0xbe6e86c2	-0.23293594
75	0x3ebd50b2	0.36975628
76	0xbde94686	-0.113904044
77	0xbe834351	-0.25637296
78	0x3ed6b6e3	0.41936406
79	0x3c5ac2fe	0.013352154
80	0x3dfd412c	0.12365946
81	0x3eb3651f	0.35038087
82	0xbe662f3e	-0.22478959
83	0x3f090821	0.5352803
84	0x3ec5f9ea	0.38667232
85	0x3f01c2f6	0.5068811
86	0xbd68c757	-0.05683073
87	0x3dba92cb	0.0911003
88	0xbe5a3894	-0.21310645
89	0x3ec04bb2	0.3755775
90	0x3f04fac9	0.5194517
91	0xbedf55cd	-0.43620148
92	0xbe2f5a28	-0.17124236
93	0xbf07213a	-0.52785075
94	0x3f0abe89	0.54196984
95	0xbe5d78e8	-0.21628153
96	0xbeef5bfd	-0.4674987
97	0xbf105b68	-0.56389475
98	0x3e6f15bf	0.23348139
99	0xbde74b2c	-0.11293635
100	0x3eb142f9	0.3462141
101	0xbecea75d	-0.40362063
102	0xbe860c68	-0.2618134
103	0xbe5f6219	-0.21814765
104	0xbf1aa4d5	-0.60407764
105	0x3ee6ccfc	0.45078266
106	0xbf0a018b	-0.53908604
107	0xbf0f4567	-0.55965275
108	0xbf13a074	-0.5766671
109	0xbe8d6b3b	-0.27620873
110	0x3f17b1bc	0.59255576
111	0xbd0fc3f8	-0.035099
112	0xbe1a6051	-0.15075804
113	0x3e5a0653	0.21291475
114	0x3ed290ff	0.41126248
115	0xbf0255d6	-0.50912225
116	0xbe84ac3e	-0.2591266
117	0xbeb6c541	-0.35697368
118	0xbe361012	-0.17779568
119	0x3e09c71a	0.13454857
120	0x3e31a707	0.17348872
121	0xbefc7ba0	-0.49313068
122	0xbecb3c6b	-0.39694533
123	0xbea2b76c	-0.31780565
124	0xbe154b7c	-0.14579576
125	0x3f004994	0.5011227
126	0xbde97654	-0.113995224
127	0x3ea55ecf	0.32298896

conv_pl_r_1.0.conv_h_z.bias f4 [8]
0	0x00000000	0.0
1	0x00000000	0.0
2	0x00000000	0.0
3	0x00000000	0.0
4	0x00000000	0.0
5	0x00000000	0.0
6	0x00000000	0.0
7	0x00000000	0.0

conv_pl_r_1.0.conv_x_r.weight f4 [2, 9, 8]
0	0xbe8eec7e	-0.27914804
1	0x3f16b0a4	0.5886328
2	0x3e6370b0	0.22210956
3	0x3c62a725	0.013833796
4	0xbe8c94eb	-0.27457365
5	0xbe818be1	-0.25302032
6	0xbef584d1	-0.47952893
7	0xb7847b54	-1.5793055e-05
8	0xbee03185	-0.4378778
9	0x3d883e75	0.06652538
10	0x3ee70c1e	0.45126432
11	0x3edb2a00	0.4280548
12	0xbe376d56	-0.17912802
13	0xbdc3472e	-0.09535061
14	0x3e0a06c1	0.13479139
15	0xbe33ac40	-0.17546177
16	0xbe90ba28	-0.28267026
17	0xbba7a295	-0.005115817
18	0xbef443fb	-0.47708115
19	0xbe927ab4	-0.2860924
20	0xbe171d94	-0.14757377
21	0x3e419009	0.18902601
22	0x3dd6ff13	0.1049787
23	0xbd8b9433	-0.06815376
24	0x3f022e96	0.50852334
25	0xbd846650	-0.06464827
26	0xbd1a9417	-0.037738886
27	0xbd07b497	-0.03313121
28	0xbd669386	-0.056293033
29	0x3eac9667	0.33708498
30	0xbef74b2e	-0.48299545
31	0x3f01a46f	0.5064153
32	0x3dc6f4bc	0.09714648
33	0xbe328b6e	-0.17436
34	0xbe52f327	-0.20600568
35	0x3f005a88	0.5013814
36	0x3de6c24f	0.1126753
37	0x3e22e3e9	0.15907253
38	0xbef6e59f	-0.48222062
39	0x3eba0ce1	0.3633795
40	0xbeee66bc	-0.46562755
41	0xbeed7bcb	-0.4638351
42	0xbe5c51d7	-0.21515594
43	0x3e16ed92	0.14739063
44	0xbe8890b3	-0.26672897
45	0x3f0ec55f	0.55769914
46	0x3ead9dd1	0.33909467
47	0x3e36524f	0.17804836
48	0x3eec598d	0.46162072
49	0xbed3ff16	-0.41405553
50	0xbefae68b	-0.49004015
51	0x3e5dc8dc	0.21658653
52	0x3ea89775	0.32928053
53	0xbf0f5875	-0.5599435
54	0x3cf5428c	0.029938959
55	0x3e4d6a5c	0.20060104
56	0xbe900375	-0.28127638
57	0xbee2dc32	-0.4430862
58	0xbf111ed0	-0.5668764
59	0x3ec0fa47	0.37690946
60	0x3ea5c460	0.32376385
61	0xbd99b4e6	-0.07505207
62	0xbe91de69	-0.28489998
63	0xbf0576df	-0.5213451
64	0xbdf88f4d	-0.121367075
65	0xbe4a1bc4	-0.19737154
66	0xbe265fc0	-0.16247463
67	0xbe022dc5	-0.12712772
68	0x3efe003a	0.49609548
69	0x3e7fff35	0.24999698
70	0xbe9978ba	-0.2997492
71	0xbdccff42	-0.10009624
72	0xbe405ea8	-0.18786108
73	0x3e47c3d9	0.19508304
74	0x3f0a2f29	0.5397821
75	0x3daa6e6c	0.083218426
76	0xbeafe563	-0.34354696
77	0x3df76018	0.12078875
78	0xbe56265d	-0.20913072
79	0xbeb70c2c	-0.35751474
80	0x3ebaa96c	0.36457384
81	0x3d8d5ab7	0.06902068
82	0x3e3591fd	0.17731471
83	0x3edc8c2c	0.43075693
84	0x3f0c7ad1	0.548749
85	0x3f0d9dd7	0.5531897
86	0x3e9a8865	0.30182186
87	0xbea3f478	-0.32022452
88	0x3f00a2b7	0.50248283
89	0xbe41e4e6	-0.18934974
90	0xbe03e255	-0.12879308
91	0x3e71a5b8	0.23598373
92	0xbec27eef	-0.37987468
93	0x3f133ba7	0.575129
94	0xbefe7198	-0.4969604
95	0xbd12b882	-0.03582049
96	0x3e1af9ae	0.15134308
97	0xbe45073b	-0.1924104
98	0xbef22c18	-0.47299266
99	0x3e05cb57	0.13065849
100	0xbe5b06ea	-0.21389356
101	0xbdd6114a	-0.104525164
102	0xbdbac7b3	-0.09120121
103	0x3eb4fe10	0.35350084
104	0xbe8e0e02	-0.27745062
105	0x3ef223fd	0.47293082
106	0x3d227376	0.039660893
107	0xbead0549	-0.33793095
108	0x3d8b5f5d	0.068052985
109	0x3cc8522b	0.024453243
110	0x3de83061	0.113373525
111	0xbea1c77b	-0.31597504
112	0x3ef5f6d8	0.4803989
113	0x3f00d9e1	0.50332457
114	0x3eb1953c	0.3468417
115	0x3ec8bb72	0.3920551
116	0x3e86fca3	0.26364622
117	0xbc098e01	-0.008395673
118	0x3e14c73d	0.14529128
119	0x3f033686	0.5125507
120	0x3e3e1b66	0.18565139
121	0xbd9516c6	-0.07279734
122	0x3f12d8c8	0.5736203
123	0xbe8b544a	-0.27212745
124	0xbe249145	-0.16071041
125	0xbde8d8fd	-0.11369512
126	0x3e277c73	0.16356067
127	0xbee92197	-0.4553344
128	0x3eb25c71	0.34836152
129	0xbedf25c8	-0.43583512
130	0xbda348ed	-0.07972894
131	0x3ebda3e1	0.37039092
132	0x3ed467f8	0.41485572
133	0xbec9445d	-0.3930997
134	0xbf178d83	-0.59200305
135	0x3f152326	0.5825676
136	0xbdf56599	-0.11982269
137	0xbf0f86ed	-0.56065255
138	0xbee71dc8	-0.4513991
139	0x3ea613db	0.32437024
140	0x3f127b16	0.57219064
141	0x3ed2f014	0.4119879
142	0x3ea7dd3a	0.3278597
143	0xbeace50e	-0.33768505

conv_pl_r_1.0.conv_x_r.bias f4 [8]
0	0x00000000	0.0
1	0x00000000	0.0
2	0x00000000	0.0
3	0x00000000	0.0
4	0x00000000	0.0
5	0x00000000	0.0
6	0x00000000	0.0
7	0x00000000	0.0

conv_pl_r_1.0.conv_h_r.weight f4 [2, 8, 8]
0	0x3e52b648	0.20577347
1	0x3e6cc15b	0.23120634
2	0x3ee9292e	0.4553923
3	0x3f04ca08	0.51870775
4	0xbd9f323b	-0.077732526
5	0xbf17684e	-0.5914353
6	0xbf1a6b53	-0.60320014
7	0xbe950e7f	-0.29112622
8	0x3ef7724b	0.48329386
9	0xbe88de89	-0.2673228
10	0xbeac3db7	-0.33640835
11	0x3eb2007e	0.34766
12	0xbf0ac7ca	-0.54211104
13	0xbc5d829c	-0.013519909
14	0xbca7c758	-0.020480797
15	0xbebcad08	-0.36850762
16	0x3e6a0d20	0.2285657
17	0xbe4dadae	-0.20085785
18	0x3cef7da9	0.029234724
19	0x3eb0f153	0.34559116
20	0x3eba6217	0.36402962
21	0xbe0e7a79	-0.13913907
22	0xbf15f4a7	-0.58576435
23	0x3e27fa93	0.1640418
24	0xbdf9302e	-0.12167393
25	0xbea26f64	-0.3172561
26	0xbeaf4221	-0.3423014
27	0x3ee3330d	0.44374886
28	0x3e1ce3ca	0.1532127
29	0xbeecfbe7	-0.46285936
30	0x3e541725	0.20711954
31	0x3d5dc112	0.054139204
32	0xbc6a3c20	-0.0142965615
33	0x3e55230e	0.20814154
34	0x3db86ca7	0.09005099
35	0x3f17f36e	0.5935582
36	0x3d5a9e40	0.053373575
37	0x3d78e1c2	0.060762174
38	0xbd8d3513	-0.06894889
39	0x3efa9e34	0.48948824
40	0xbeef9d5c	-0.46799743
41	0x3f17516b	0.5910861
42	0xbf1b835b	-0.6074731
43	0x3dd21105	0.102571525
44	0xbe1d2b48	-0.15348542
45	0xbefeb7da	-0.49749643
46	0xbf145f6f	-0.5795812
47	0x3eda94b1	0.42691568
48	0xbdfd1ffe	-0.12359618
49	0x3d2e01f6	0.04248234
50	0xbdb1f1b3	-0.086886786
51	0x3f001941	0.50038534
52	0x3ecca98e	0.3997311
53	0x3e45c98a	0.19315162
54	0xbe203256	-0.15644202
55	0x3eba98a9	0.36444595
56	0x3f05ae22	0.5221883
57	0xbee3435d	-0.44387332
58	0x3edac125	0.42725483
59	0xbf163a54	-0.5868275
60	0xbf074826	-0.52844465
61	0xbde2ae85	-0.11068443
62	0xbdb4230d	-0.08795748
63	0x3e807e97	0.2509658
64	0x3eb8ed1c	0.361184
65	0xbecd7293	-0.40126476
66	0x3f136ee7	0.575911
67	0x3e81e4b2	0.25369793
68	0xbf07ee24	-0.5309775
69	0xbe859261	-0.2608824
70	0xbe4771f8	-0.1947707
71	0x3ef1ca3a	0.472246
72	0xbea86dba	-0.32896215
73	0x3ec0d637	0.37663433
74	0x3ec04572	0.37552983
75	0xbefa1653	-0.48845157
76	0xbee8bd69	-0.45457008
77	0xbe90d00d	-0.2828373
78	0xbecc1a38	-0.39863753
79	0x3e249f79	0.16076459
80	0xbeaaae0f	-0.3333592
81	0xbe93f189	-0.28895214
82	0x3e12ee6c	0.14348763
83	0x3f0e7f2b	0.5566279
84	0xbf0b2e51	-0.5436755
85	0x3da66c83	0.08126166
86	0x3ec01481	0.37515643
87	0x3e935098	0.28772426
88	0x3eab8af6	0.33504456
89	0x3e6a622b	0.2288901
90	0x3ee01433	0.4376541
91	0x3dd9bf00	0.106321335
92	0x3f057bd4	0.5214207
93	0x3f188b2c	0.5958736
94	0xbda9c6d4	-0.082898766
95	0x3e214c9a	0.15751877
96	0xbdd07abf	-0.10179662
97	0x3f0e8b6c	0.5568149
98	0xbede6d8a	-0.43442947
99	0x3e6fea56	0.23429236
100	0x3f0149a4	0.5050299
101	0xbe541bc1	-0.20713712
102	0xbe4f2194	-0.20227653
103	0x3e80b2b8	0.25136352
104	0x3e71f961	0.23630287
105	0x3ea882b9	0.32912233
106	0x3ee80dda	0.45323068
107	0xbe986ba5	-0.29769626
108	0xbec69c9b	-0.38791355
109	0xbdddbc36	-0.10826914
110	0x3f02a0e7	0.5102677
111	0x3e46894a	0.19388309
112	0xbdb01ab5	-0.08598844
113	0xbed5c5c6	-0.41752452
114	0xbece371e	-0.40276426
115	0x3ec8f716	0.39251012
116	0x3f114ed4	0.5676091
117	0xbea83663	-0.32853994
118	0xbe383b03	-0.17991261
119	0xbee6837b	-0.45022187
120	0x3e967e38	0.29393172
121	0xbda14ca8	-0.07875949
122	0x3d8a0925	0.067400254
123	0x3e50feed	0.20409746
124	0x3f05bba0	0.5223942
125	0xbeefed97	-0.46860954
126	0x3ea12608	0.31474328
127	0xbe668b06	-0.2251397

conv_pl_r_1.0.conv_h_r.bias f4 [8]
0	0x00000000	0.0
1	0x00000000	0.0
2	0x00000000	0.0
3	0x00000000	0.0
4	0x00000000	0.0
5	0x00000000	0.0
6	0x00000000	0.0
7	0x00000000	0.0

conv_pl_r_1.0.conv_x_h.weight f4 [2, 9, 8]
0	0x3e033e62	0.12816766
1	0x3ec776a7	0.38957712
2	0xbf003bc3	-0.5009119
3	0xbdcfe488	-0.10151011
4	0xbe367f08	-0.17821896
5	0x3de881eb	0.11352905
6	0x3e3957c6	0.18099889
7	0xbe8fd268	-0.28090215
8	0xbed516a2	-0.4161883
9	0x3f11091b	0.5665452
10	0x3ed4e39b	0.415799
11	0xbf047008	-0.51733446
12	0xbec59dd1	-0.38596967
13	0x3d357545	0.04430129
14	0x3ea65a88	0.32490945
15	0x3ee420f0	0.4455638
16	0xbf106777	-0.56407875
17	0x3e5a1e7a	0.21300688
18	0x3ef23d95	0.47312608
19	0xbf03ef45	-0.5153697
20	0x3ed4b0f3	0.41541252
21	0xbed579a1	-0.41694358
22	0x3eacb6e9	0.337333
23	0xbe03cc09	-0.12870802
24	0xbed08251	-0.40724424
25	0x3e502a0f	0.20328544
26	0x3e4ce7a5	0.2001024
27	0xbeec5986	-0.4616205
28	0xbeb5b8ec	-0.35492647
29	0xbe1ab138	-0.15106666
30	0x3cb7d78c	0.022441648
31	0xbd6605b0	-0.056157768
32	0xbe7448bb	-0.2385587
33	0x3f0b7a92	0.544839
34	0xbed6005e	-0.41797155
35	0x3ee52540	0.44754982
36	0xbda62eae	-0.08114372
37	0xbe4a1b6a	-0.1973702
38	0xbf0383a1	-0.51372725
39	0x3eb8a51a	0.36063462
40	0xbeedd1d1	-0.4644914
41	0x3d1600fe	0.03662204
42	0xbe3ac2e9	-0.18238415
43	0xbdf454ba	-0.11930223
44	0xbf14dddb	-0.58151025
45	0xbe13d02c	-0.1443488
46	0xbe5b80c7	-0.21435843
47	0x3ef07f83	0.46972284
48	0xbf14009b	-0.57813424
49	0xbe9e77b5	-0.30950704
50	0x3d9c5572	0.07633485
51	0x3e13c40d	0.14430256
52	0xbe1137df	-0.1418147
53	0xbe6cbf22	-0.23119786
54	0xbebdc44d	-0.37063828
55	0xbe98afca	-0.29821616
56	0x3ec2e43c	0.38064754
57	0xbdcc00fd	-0.09961126
58	0x3e466e82	0.19378093
59	0xbe8d108e	-0.27551693
60	0xbe927db6	-0.28611535
61	0x3f1121ca	0.56692183
62	0x3d8d75a2	0.06907202
63	0x3a078205	0.0005169216
64	0x3e1416cc	0.14461821
65	0xbe5c51a7	-0.21515523
66	0x3ec47646	0.38371485
67	0xbeca1efa	-0.39476758
68	0xbe4111a9	-0.18854393
69	0x3e82b85c	0.2553128
70	0xbeb57916	-0.35443944
71	0xbe94373b	-0.28948388
72	0x3e1d0cc7	0.15336905
73	0xbdd9dca0	-0.10637784
74	0x3eef8cba	0.46787053
75	0xbbff3483	-0.0077882423
76	0x3ea774f0	0.32706404
77	0x3ef521d3	0.47877368
78	0xbe262cf9	-0.16228093
79	0xbeae050f	-0.33988234
80	0xbdac0e52	-0.08401169
81	0xbe55809c	-0.20849842
82	0x3eb99188	0.36243844
83	0x3e897c28	0.26852536
84	0x3ef3d74c	0.47625196
85	0xbc898031	-0.01678476
86	0xbe6c8037	-0.23095785
87	0x3ce1d0d4	0.027565397
88	0x3eabbc91	0.33542302
89	0xbe6c9b94	-0.23106223
90	0x3dda580c	0.10661325
91	0x3e998d67	0.29990694
92	0x3ec84b81	0.39120105
93	0xbe0c9d46	-0.1373187
94	0xbc3af4f6	-0.011410942
95	0xbf0fe0a2	-0.5620214
96	0xbe3c02cf	-0.18360446
97	0x3ef866cb	0.48515925
98	0xbeaed3e0	-0.34146023
99	0xbe5a6b22	-0.2132993
100	0xbec2df05	-0.38060775
101	0x3f0d6ecf	0.55247205
102	0x3f12c911	0.57338053
103	0x3ee94d84	0.45566952
104	0xbc5c0589	-0.013429054
105	0xbe87ab24	-0.26497757
106	0x3e01b539	0.12666787
107	0xbe4dc63e	-0.20095155
108	0xbf0988b7	-0.53724235
109	0x3ebdd1f9	0.3707426
110	0xbe023059	-0.12713756
111	0x3e6bd06b	0.23028724
112	0x3ed1d642	0.40983778
113	0xbea99ace	-0.3312592
114	0xbe9fdfac	-0.31225336
115	0xbdddd52f	-0.10831677
116	0x3e84f1d9	0.25965765
117	0xbef1e8f8	-0.47248054
118	0xbe067595	-0.13130791
119	0x3ed6dc89	0.4196513
120	0x3edeb0b3	0.43494186
121	0x3f1556e9	0.5833574
122	0xbf07f22a	-0.5310389
123	0x3c8a1172	0.016854022
124	0xbdf34ba6	-0.11879663
125	0x3d85f480	0.06540775
126	0x3ee8060d	0.45317116
127	0x3f103edd	0.5634592
128	0x3e67da08	0.22641766
129	0xbf07fd89	-0.5312124
130	0x3ec1c135	0.37842718
131	0xbee56a34	-0.4480759
132	0x3d9db5da	0.07700701
133	0xbefb8a79	-0.49129084
134	0xbf16f4b9	-0.5896717
135	0x3f0af172	0.54274666
136	0x3e16c212	0.1472247
137	0xbdbfaf9a	-0.09359665
138	0x3ec419ea	0.3830102
139	0xbebdd2ba	-0.37074834
140	0x3ea26a62	0.3172179
141	0x3ecc9a86	0.39961642
142	0xbd8a05ca	-0.067393854
143	0xbdbc5e05	-0.0919762

conv_pl_r_1.0.conv_x_h.bias f4 [8]
0	0x00000000	0.0
1	0x00000000	0.0
2	0x00000000	0.0
3	0x00000000	0.0
4	0x00000000	0.0
5	0x00000000	0.0
6	0x00000000	0.0
7	0x00000000	0.0

conv_pl_r_1.0.conv_h_h.weight f4 [2, 8, 8]
0	0xbe1066d7	-0.1410173
1	0x3d9ad69a	0.07560463
2	0x3eaeaee2	0.341178
3	0x3eff6c85	0.4988748
4	0x3d1ead1d	0.038739312
5	0x3f13d156	0.57741296
6	0x3d637532	0.055531688
7	0x3e09afc2	0.13445953
8	0x3ee5bc19	0.4487007
9	0xbed32f57	-0.41247055
10	0x3d91d094	0.07119861
11	0x3f0d7dbc	0.5526998
12	0xbeb51718	-0.35369182
13	0xbf03c411	-0.5147105
14	0xbe591f62	-0.21203378
15	0xbdad1ed0	-0.08453143
16	0x3e2661f3	0.16248302
17	0x3cf6135e	0.030038532
18	0x3ca2d9b4	0.0198792
19	0x3f13d2b3	0.57743376
20	0xbe71861e	-0.23586318
21	0xbf02438b	-0.5088431
22	0xbf121f62	-0.57079136
23	0x3e914b83	0.28377923
24	0x3eae34f6	0.3402478
25	0xbeeaed4a	-0.45884162
26	0xbe915c18	-0.28390574
27	0x3ea1057d	0.314495
28	0xbe486833	-0.19570999
29	0xbea21d7a	-0.31663114
30	0x3f039e7b	0.51413697
31	0xbe0b6f1d	-0.13616605
32	0x3de87e47	0.113522105
33	0x3b259cff	0.002527058
34	0xbeecb6f9	-0.46233347
35	0x3eee15df	0.4650106
36	0xbefcd791	-0.49383214
37	0x3f182481	0.594307
38	0xbe910e86	-0.28331393
39	0x3e609d4c	0.21935004
40	0xbd6dec18	-0.058086485
41	0xbee1c4eb	-0.4409555
42	0xbf14c8b0	-0.58118725
43	0x3eee0a86	0.46492404
44	0xbe690ab9	-0.22757997
45	0xbdac0eb0	-0.08401239
46	0x3e1b31dd	0.1515574
47	0x3f0d82f2	0.5527793
48	0xbea2a6d4	-0.31767905
49	0xbdbcd1d0	-0.09219706
50	0xbed77499	-0.42081144
51	0x3cecd107	0.028908266
52	0xbed1313a	-0.4085787
53	0x3e82ce53	0.25548038
54	0xbc83f75d	-0.016109163
55	0x3e5ae5eb	0.21376769
56	0x3e752446	0.23939618
57	0xbed30d93	-0.41221294
58	0x3c8b20cf	0.016983418
59	0xbe452604	-0.19252783
60	0x3e71a3d1	0.23597647
61	0x3f13fc0a	0.57806456
62	0x3db4a1e4	0.08819941
63	0x3f0bbf68	0.5458894
64	0xbee6a0af	-0.45044467
65	0xbe37b3ae	-0.17939636
66	0x3eca0192	0.39454323
67	0x3f06ca21	0.52652174
68	0xbe86bd9c	-0.26316535
69	0x3f128212	0.5722972
70	0x3ed2891c	0.4112023
71	0x3f0ac89e	0.5421237
72	0xbe99847c	-0.2998389
73	0x3f12e56d	0.57381326
74	0x3e74bb8a	0.23899665
75	0xbe3f0dff	-0.18657683
76	0xbf0827dd	-0.53185827
77	0xbaacb54b	-0.0013176588
78	0xbf19918b	-0.59987706
79	0xbddeeb38	-0.10884708
80	0x3e3e0acf	0.1855881
81	0x3e9cd2f0	0.30629683
82	0x3e09827b	0.1342868
83	0x3ee97941	0.45600322
84	0xbdc9acb3	-0.09847393
85	0xbe75ed3a	-0.24016276
86	0x3d7b3670	0.061331213
87	0xbf0050a2	-0.50123036
88	0xbb895ba7	-0.004191834
89	0xbe8a18d1	-0.26972058
90	0x3ea02ee9	0.3128579
91	0xbf16d7ca	-0.5892302
92	0x3e812e09	0.25230435
93	0x3e87e13c	0.26539028
94	0xbf086a84	-0.5328753
95	0x3ed9c903	0.42536172
96	0x3e10c7ff	0.14138792
97	0xbe0069e0	-0.12540388
98	0xbef55501	-0.47916415
99	0x3e6d434f	0.23170207
100	0x3a3c7a0d	0.0007189818
101	0x3f17c815	0.59289676
102	0x3f18e175	0.5971902
103	0xbd2f02a0	-0.042727113
104	0xbef2ca83	-0.4742013
105	0xbe92cd82	-0.28672415
106	0x3d2c5f8f	0.04208332
107	0x3efdb801	0.49554446
108	0x3e95e885	0.2927896
109	0x3eb93337	0.36171886
110	0xbef9000f	-0.48632857
111	0xbe1589da	-0.14603367
112	0x3ed4cf16	0.41564244
113	0xbeec8bc5	-0.46200386
114	0xbc9a60fd	-0.018845076
115	0xbecc5705	-0.3991014
116	0x3d9f6fe3	0.077850126
117	0x3d065ff2	0.032806344
118	0x3ed750bc	0.42053783
119	0xbec3efc6	-0.3826887
120	0xbe36266c	-0.17788094
121	0xbf00a671	-0.5025397
122	0xbe2763c2	-0.16346648
123	0xbe8ddd7a	-0.27708036
124	0x3f17ad3e	0.5924872
125	0xbe654826	-0.22390804
126	0x3e6dee90	0.23235536
127	0xbf06a629	-0.5259729

conv_pl_r_1.0.conv_h_h.bias f4 [8]
0	0x00000000	0.0
1	0x00000000	0.0
2	0x00000000	0.0
3	0x00000000	0.0
4	0x00000000	0.0
5	0x00000000	0.0
6	0x00000000	0.0
7	0x00000000	0.0

conv_pl_r_1.1.conv_x_z.weight f4 [2, 9, 8]
0	0x3e6440b2	0.22290304
1	0xbea5f457	-0.3241298
2	0x3e70d26d	0.23517771
3	0x3e645acc	0.22300261
4	0xbd4838c6	-0.04888227
5	0xbc69d3c5	-0.014271681
6	0xbca9c3ce	-0.02072325
7	0x3f03fb60	0.5155544
8	0xbda2eeec	-0.07955727
9	0x3e7f2877	0.2491778
10	0x3e9d887c	0.30768192
11	0x3d191261	0.037371043
12	0x3f08d8ae	0.53455627
13	0xbdd993b3	-0.106238745
14	0xbea4549e	-0.32095808
15	0x3e456e24	0.19280297
16	0x3d8b065c	0.06788322
17	0x3e8d2805	0.27569595
18	0xbd2a0067	-0.04150429
19	0x3eb974db	0.36221966
20	0xbe59723a	-0.2123498
21	0x3ec1b4e6	0.37833327
22	0x3d6ed42e	0.05830782
23	0x3d876548	0.06611115
24	0xbf02f11a	-0.5114914
25	0x3e453e5f	0.19262074
26	0x3ed52124	0.41626847
27	0x3d365115	0.04451092
28	0x3edc3590	0.43009615
29	0xbe07a647	-0.13247024
30	0xbe8034b3	-0.25040206
31	0xbe9413ed	-0.28921452
32	0xbe9cff6d	-0.30663624
33	0x3e9edb01	0.31026462
34	0x3efee995	0.49787584
35	0xbe37bf2c	-0.1794402
36	0xbef13264	-0.47108757
37	0x3ef28d3f	0.47373387
38	0xbe56f80e	-0.20993063
39	0x3eec579a	0.46160585
40	0xbdb93e90	-0.09045136
41	0x3ec7db18	0.39034343
42	0x3ef193ba	0.4718302
43	0x3e94cb6b	0.29061446
44	0xbeb9f111	-0.36316732
45	0x3e8b39a6	0.2719242
46	0x3ea6ad13	0.3255392
47	0x3edab4c8	0.4271605
48	0xbeb3b281	-0.35097125
49	0xbe20d5d4	-0.15706569
50	0xbec4e12c	-0.38453043
51	0xbe073310	-0.13203073
52	0xbd9bf429	-0.07614929
53	0x3db09c1b	0.08623525
54	0xbf0551fd	-0.5207823
55	0x3ec688ce	0.3877625
56	0xbd935b49	-0.07195146
57	0xbf007b03	-0.501877
58	0x3f07b195	0.53005344
59	0xbeb55b8a	-0.354214
60	0xbd568fa5	-0.052383084
61	0xbe451b60	-0.19248724
62	0x3f03edda	0.5153481
63	0x3e35261b	0.17690317
64	0xbe095a35	-0.13413318
65	0xbe2e6135	-0.17029269
66	0x3e709cca	0.2349731
67	0xbea75e24	-0.3268901
68	0x3ed1d764	0.40984643
69	0xbe7911e9	-0.24323238
70	0x3ecba05d	0.39770785
71	0x3f09a992	0.5377437
72	0x3dcd760a	0.1003228
73	0xbe8c7eee	-0.2744059
74	0x3cdbe92b	0.026844582
75	0xbf145861	-0.57947356
76	0xbe345096	-0.17608866
77	0x3ed85f06	0.42259997
78	0xbf16931f	-0.5881824
79	0xbefe2a21	-0.49641517
80	0x3f09b3c9	0.53789955
81	0x3e5bebe1	0.214767
82	0xbe87266b	-0.26396498
83	0xbd98fae0	-0.074697256
84	0xbccbf91e	-0.024899062
85	0xbf13ef0d	-0.5778664
86	0x3f14edbf	0.5817527
87	0x3eca08bf	0.39459798
88	0x3eca09f9	0.39460734
89	0xbd48bef6	-0.04901024
90	0xbebeeb7d	-0.37289038
91	0x3efdeef4	0.4959637
92	0x3ee252ff	0.44203946
93	0xbf13f062	-0.5778867
94	0xbeb26eee	-0.34850258
95	0x3e8d28d7	0.2757022
96	0x3e4df6d3	0.20113687
97	0x3e4da921	0.20084049
98	0x3f16103d	0.5861853
99	0xbe00b506	-0.12569055
100	0x3e33bc3c	0.17552274
101	0xbed69d65	-0.41916957
102	0x3e9c109f	0.3048143
103	0x3efe4abf	0.49666402
104	0xbe30a55a	-0.17250577
105	0xbec234d0	-0.37930918
106	0xbe2f83cf	-0.17140125
107	0x3f10d9d8	0.56582403
108	0xbf0838ed	-0.5321186
109	0x3e678e31	0.22612835
110	0xbe80a1a2	-0.25123316
111	0x3e9dd0ca	0.30823356
112	0x3e9b8df3	0.30381736
113	0xbedc475c	-0.43023193
114	0xbe4f674a	-0.20254245
115	0x3e74d7fb	0.23910515
116	0xbf0dbb1d	-0.5536364
117	0xbe672924	-0.22574288
118	0xbefffb46	-0.49996394
119	0xbed32f06	-0.41246814
120	0xbe23efca	-0.16009441
121	0xbef9a930	-0.48761892
122	0xbf119ada	-0.5687691
123	0xbe52f2b0	-0.2060039
124	0x3b613d0c	0.0034368662
125	0xbd32fe33	-0.043699455
126	0xbf100a7d	-0.56266004
127	0xbf050666	-0.5196289
128	0x3efda05d	0.4953641
129	0x3efa598a	0.48896438
130	0xbef226fd	-0.4729537
131	0xbf00109a	-0.5002533
132	0x3ee0e99b	0.43928227
133	0xbec2f99d	-0.38081065
134	0xbd3f9547	-0.04677322
135	0x3dbaaa38	0.09114498
136	0x3eea9d80	0.45823288
137	0x3d6f6a42	0.058450945
138	0x3ef790ae	0.4835257
139	0xbc1281b4	-0.008942056
140	0x3e740e53	0.2383359
141	0x3ed80b07	0.42195913
142	0x3d7c15e9	0.061544333
143	0xbf00b3d6	-0.5027441

conv_pl_r_1.1.conv_x_z.bias f4 [8]
0	0x00000000	0.0
1	0x00000000	0.0
2	0x00000000	0.0
3	0x00000000	0.0
4	0x00000000	0.0
5	0x00000000	0.0
6	0x00000000	0.0
7	0x00000000	0.0

conv_pl_r_1.1.conv_h_z.weight f4 [2, 8, 8]
0	0x3ec2522f	0.37953326
1	0x3f06c053	0.52637213
2	0x3e85bf15	0.26122347
3	0xbf09aebc	-0.5378225
4	0xbf0a98a4	-0.5413916
5	0x3e11a586	0.14223298
6	0x3d579786	0.05263474
7	0xbee8a598	-0.45438838
8	0x3ea32608	0.31864953
9	0x3e110a9c	0.14164203
10	0x3e10301c	0.14080852
11	0x3ef577bd	0.47942916
12	0x3e5a14b7	0.21296965
13	0xbe696789	-0.22793402
14	0x3d0856c8	0.033285886
15	0x3d829fa2	0.06378104
16	0x3f053917	0.5204024
17	0xbe82716b	-0.25477156
18	0xbea245a5	-0.3169376
19	0xbf06fc72	-0.5272895
20	0x3f089419	0.5335098
21	0xbe82586a	-0.2545808
22	0x3eba6dbc	0.36411846
23	0x3f18950b	0.5960242
24	0xbed2ee7d	-0.41197577
25	0x3c90adaa	0.017660934
26	0xbe82710b	-0.2547687
27	0x3edf2b36	0.43587655
28	0xbb4611aa	-0.003022293
29	0xbef308c4	-0.47467625
30	0x3ea7abf1	0.32748368
31	0xbeaa93e8	-0.3331597
32	0x3ee31372	0.44350773
33	0xbec8db36	-0.39229745
34	0xbeeb002b	-0.45898566
35	0x3ef34f92	0.47521645
36	0x3f025639	0.50912815
37	0xbf1a01f2	-0.6015922
38	0x3ee1f8c2	0.441351
39	0xbed11685	-0.40837494
40	0xbf0af2f3	-0.5427696
41	0xbe54cd27	-0.20781384
42	0x3d829587	0.06376176
43	0x3c9776d0	0.018489271
44	0x3de08503	0.1096287
45	0x3e83365c	0.2562741
46	0x3edb95c6	0.42887706
47	0x3e086243	0.13318734
48	0xbc6ae438	-0.014336638
49	0x3e8d8e8c	0.27647817
50	0x3eaf7a15	0.3427283
51	0xbc8b95c5	-0.01703919
52	0x3e3a14fd	0.18172069
53	0xbeae2754	-0.3401438
54	0xbe0b735d	-0.13618226
55	0xbd7d0d6e	-0.061780386
56	0xbba110e0	-0.0049153417
57	0x3ef22571	0.4729419
58	0xbdb13987	-0.086535506
59	0xbe7f9cd7	-0.24962173
60	0x3eba0e9b	0.36339268
61	0xbf05a317	-0.5220198
62	0xbee5fe5e	-0.4492063
63	0x3f0be339	0.5464359
64	0x3ec142c9	0.37746266
65	0x3ef81ad2	0.48457962
66	0x3f0556d5	0.5208562
67	0x3ebd7f33	0.37011108
68	0x3ecfa571	0.4055591
69	0xbe9ac7f1	-0.30230668
70	0xbc8d1eea	-0.017226655
71	0xbea08346	-0.31350154
72	0xbded2f38	-0.11581272
73	0xbedc30cc	-0.4300598
74	0xbe985549	-0.29752567
75	0xbf0c9bde	-0.54925334
76	0x3f1942d4	0.59867597
77	0xbcc776fc	-0.024348728
78	0xbedf0fa0	-0.43566608
79	0x3d2d5bdb	0.04232393
80	0xbf146858	-0.57971716
81	0x3daaa7e0	0.08332801
82	0x3e453ec2	0.19262221
83	0x3f0d195e	0.5511683
84	0xbef7cf8a	-0.48400527
85	0x3e8b1ad9	0.2716892
86	0x3e865eac	0.26244104
87	0x3e86ed59	0.26352957
88	0xbf15a402	-0.5845338
89	0xbe85093a	-0.25983602
90	0xbf186592	-0.59529984
91	0xbdf5c159	-0.11999769
92	0x3ea6baf7	0.32564518
93	0x3ed46863	0.4148589
94	0xbe9e7cba	-0.30954534
95	0xbdbde74b	-0.09272631
96	0x3ecd29a3	0.4007083
97	0x3ea92fb7	0.33044216
98	0xbf1a2f5a	-0.602285
99	0x3eb80764	0.3594314
100	0xbed3e219	-0.41383436
101	0x3ec8ce64	0.39219964
102	0xbd968e09	-0.0735131
103	0xba910e44	-0.0011066874
104	0xbe1db1cb	-0.15399854
105	0x3e5e68fa	0.21719733
106	0x3eed9616	0.4640357
107	0x3d9a39f3	0.07530584
108	0xbe955d4b	-0.2917274
109	0xbe47859b	-0.1948456
110	0x3dc8d117	0.09805506
111	0x3eb12f17	0.3460624
112	0x3e839875	0.25702253
113	0x3e225771	0.15853669
114	0xbf077821	-0.5291768
115	0x3eee969a	0.46599275
116	0xbe26aae6	-0.1627613
117	0x3e9c9534	0.30582583
118	0x3e938de8	0.28819203
119	0x3e904851	0.28180173
120	0x3e8d8a76	0.276447
121	0xbe49ec59	-0.19719066
122	0x3b5f643d	0.0034086846
123	0xbed9cae8	-0.42537618
124	0x3e0f6f05	0.14007194
125	0x3f192eef	0.5983724
126	0x3ddfb51c	0.10923216
127	0xbed75f19	-0.4206474

conv_pl_r_1.1.conv_h_z.bias f4 [8]
0	0x00000000	0.0
1	0x00000000	0.0
2	0x00000000	0.0
3	0x00000000	0.0
4	0x00000000	0.0
5	0x00000000	0.0
6	0x00000000	0.0
7	0x00000000	0.0
